model/model.pth (torch, 17216 bytes, 4 tensors)

linear1.weight f4 [256, 11]
0	0xbe8098a0	-0.25116444
1	0x3dea5ccf	0.11443483
2	0xbe4ad112	-0.19806316
3	0xbe252bdf	-0.16130017
4	0x3d871833	0.065964125
5	0xbe92d8fa	-0.28681165
6	0xbe67a570	-0.22621703
7	0x3e86fb1e	0.26363462
8	0xbd884e30	-0.06655538
9	0xbe42bcc6	-0.19017324
10	0xbda50d61	-0.080591924
11	0x3e4fc7b1	0.2029102
12	0x3dda25f8	0.10651773
13	0x3db4dd4e	0.08831273
14	0xbe82470d	-0.25444832
15	0xbd7f0f0f	-0.06227022
16	0x3d13238d	0.035922576
17	0x3d82af0b	0.06381043
18	0xbd501e0f	-0.050809916
19	0xbe47ac94	-0.19499427
20	0xbe6bb88a	-0.23019615
21	0x3dfda2b1	0.123845465
22	0x3d880255	0.0664107
23	0x3e12ab58	0.14323175
24	0x3d350f55	0.044204075
25	0xbd4571ba	-0.04820416
26	0x3e028ea9	0.12749733
27	0xbac7a454	-0.0015231469
28	0xbe57334b	-0.2101566
29	0xbe0ce455	-0.13758977
30	0x3e803fae	0.25048584
31	0x3e85dc9c	0.26144874
32	0x3e469d52	0.1939595
33	0x3ce81c1d	0.028333718
34	0xbe3ca1fc	-0.18421167
35	0xba3c38eb	-0.00071801123
36	0x3e41893f	0.18900011
37	0xbe836c6c	-0.25668657
38	0x3e8c72e8	0.27431417
39	0xbdbad450	-0.09122527
40	0x3e1c52e1	0.15265991
41	0xbe41a034	-0.18908769
42	0xbd4cec36	-0.050029956
43	0xbd3eba19	-0.046564195
44	0xbe122e9f	-0.14275597
45	0xbdb1810f	-0.08667194
46	0x3de3003e	0.110840306
47	0x3e434791	0.19070269
48	0x3e72cbe9	0.23710598
49	0xbe27f01c	-0.16400188
50	0x3d70ef52	0.058821984
51	0x3cbd6881	0.02312112
52	0xbe91879e	-0.2842378
53	0xbe0e8679	-0.13918485
54	0x3ddc5db4	0.1076006
55	0xbdc0f600	-0.09421921
56	0x3def238c	0.11676702
57	0xbe5b1102	-0.21393207
58	0x3df0cef2	0.11758222
59	0xbe9341e7	-0.28761217
60	0xbe3adecc	-0.18249053
61	0x3e65362a	0.22383943
62	0xbe6e8af6	-0.23295197
63	0xbe31cc88	-0.17363179
64	0x3dd0862b	0.101818405
65	0xbe824e87	-0.25450537
66	0xbe40fbd9	-0.18846072
67	0x3d452802	0.048133858
68	0xbc52c78c	-0.0128649585
69	0xbe238fb8	-0.15972793
70	0xbb94a51a	-0.004536283
71	0x3e97b1a3	0.29627714
72	0x3d4e5169	0.050370608
73	0xbc65209f	-0.013984828
74	0xbc04a794	-0.008096594
75	0xbe7eb66e	-0.24874279
76	0xbd8a3062	-0.067475095
77	0x3d1e46ec	0.038641855
78	0x3ea05fef	0.31323192
79	0xbe903f10	-0.28173113
80	0xbde990e0	-0.11404586
81	0xbd00ae27	-0.031416085
82	0x3e53e150	0.20691419
83	0xbdf4a86b	-0.11946186
84	0xbe8b2b73	-0.27181587
85	0xbdfd5dca	-0.123714045
86	0xbd9ca2ec	-0.076482624
87	0xbd6e996c	-0.058251783
88	0xbd416cea	-0.04722301
89	0xbd81ec79	-0.06343932
90	0xbda73693	-0.08164706
91	0xbc664fd1	-0.014057116
92	0x3e2d3fe5	0.16918905
93	0x3e6127af	0.21987794
94	0xbd89764b	-0.06712016
95	0xbce25611	-0.02762893
96	0x3df18ce3	0.1179445
97	0x3d07a2db	0.033114295
98	0xbe92d78a	-0.28680068
99	0xbe879712	-0.26482445
100	0x3df5b311	0.11997045
101	0xbd363ba4	-0.04449047
102	0xbe5a067c	-0.21291536
103	0xbe128548	-0.14308655
104	0x3e0a3a09	0.13498701
105	0x3d9e0afd	0.077169396
106	0x3d78a90f	0.0607081
107	0x3e8d290f	0.27570388
108	0xbcafc234	-0.021454908
109	0x3e82e7d9	0.2556751
110	0xbde56efd	-0.1120281
111	0xbe2a92b4	-0.16657525
112	0xbd1f34e8	-0.038868815
113	0x3e1a0f2e	0.15044853
114	0xbe234097	-0.15942608
115	0xbe956ba3	-0.29183683
116	0x3e81d0fe	0.2535476
117	0x3dc1ac12	0.09456648
118	0xbd2d146f	-0.042255815
119	0x3e6d9453	0.23201112
120	0xbe21549a	-0.15754929
121	0x3e81f483	0.2538186
122	0x3de064ec	0.10956749
123	0x3e6d3967	0.23166429
124	0x3d61d422	0.055133946
125	0x3e88b2a6	0.26698798
126	0xbd421ad3	-0.047388863
127	0x3e76b91d	0.24094053
128	0xbe264ac9	-0.16239466
129	0x3d84e226	0.06488447
130	0xbe7750dd	-0.2415194
131	0xbe1c6f19	-0.15276755
132	0x3d9db306	0.07700162
133	0xbe6cd6b3	-0.23128776
134	0xbe913dc4	-0.28367436
135	0xbd46e730	-0.04856032
136	0x3e9289a3	0.28620633
137	0xbdd23226	-0.10263471
138	0x3e60bc43	0.21946816
139	0xbda9886e	-0.08277975
140	0xbe916eb0	-0.2840476
141	0x3e7231ee	0.23651859
142	0xbe09f035	-0.13470538
143	0xbe813b60	-0.25240612
144	0x3e8ae7d6	0.27130002
145	0xbd9153bc	-0.07096049
146	0x3e85c5b7	0.26127407
147	0xbe8080fe	-0.25098413
148	0xbd990221	-0.07471109
149	0x3caf877c	0.021426909
150	0x3dfb7a6d	0.1227921
151	0x3d395190	0.0452438
152	0xbb385783	-0.0028128333
153	0x3e3078f2	0.17233637
154	0x3e40a237	0.1881188
155	0x3cb13453	0.021631395
156	0xbdd3d5e9	-0.103435345
157	0x3e48ef9b	0.19622652
158	0x3da03929	0.078234024
159	0xbc46bf91	-0.012130634
160	0xbc72de89	-0.014823564
161	0x3e1d77a8	0.15377676
162	0xbe6b69b7	-0.22989546
163	0x3c76cbf2	0.015063273
164	0xbe8877f9	-0.26654032
165	0x3e88a5d0	0.26689005
166	0xbc810326	-0.015748572
167	0x3e3a7d55	0.18211873
168	0xbe1d1799	-0.15341033
169	0xbd0a5881	-0.03377581
170	0xbe4bb286	-0.1989232
171	0xbe91aa1a	-0.2845009
172	0xbce8d094	-0.02841977
173	0xbe8ad444	-0.2711507
174	0xbdb9ff5a	-0.090819076
175	0x3c980c0d	0.018560434
176	0x3e4344c1	0.19069196
177	0xbe92b820	-0.286561
178	0x3e1ca967	0.15298997
179	0x3dd6ec1d	0.10494254
180	0xbe7a7648	-0.24459183
181	0xbd21ba23	-0.039484154
182	0xbe46b523	-0.19405036
183	0xbe852f7a	-0.26012784
184	0xbdb10ffd	-0.08645628
185	0x3e911b62	0.28341204
186	0xbe0f2253	-0.13977937
187	0x3de22050	0.11041319
188	0x3e8471eb	0.25868163
189	0xbe232a81	-0.15934183
190	0x3d5ba37f	0.05362272
191	0x3e863e79	0.26219538
192	0x3e79e446	0.24403486
193	0x3e0b1570	0.13582397
194	0x3d8c9e87	0.06866174
195	0xbe6c93dd	-0.2310328
196	0xbdcc4ad3	-0.09975209
197	0x3e4cd5d8	0.2000345
198	0xbd515fbf	-0.0511167
199	0xbdec7d54	-0.11547342
200	0xbe8d106e	-0.27551597
201	0x3e97cf03	0.29650125
202	0xbd51c7a2	-0.051215775
203	0xbe40f4a3	-0.18843322
204	0xbe7a483e	-0.2444162
205	0xbe607d54	-0.21922809
206	0x3e142674	0.14467794
207	0xbd4b1f46	-0.04959037
208	0x3e892302	0.2678452
209	0x3e8413b8	0.25796294
210	0x3e4f136d	0.20222254
211	0x3e00df82	0.12585261
212	0xbc3abf80	-0.011398196
213	0x3d98b3bb	0.07456156
214	0xbe594603	-0.21218114
215	0xbdbde528	-0.09272224
216	0xbdc79867	-0.09745865
217	0x3c047bde	0.008086173
218	0x3e7b4b66	0.24540481
219	0xbe3847a3	-0.17996077
220	0x3df35067	0.1188057
221	0xbe82e2fc	-0.255638
222	0x3d8408b4	0.064469725
223	0x3d819fd3	0.06329312
224	0x3e043f48	0.12914765
225	0x3e301454	0.17195255
226	0x3e81ec00	0.25375366
227	0xbe3bf381	-0.18354608
228	0x3e492bfe	0.19645688
229	0xbe5962c0	-0.21229076
230	0x3e0ad911	0.13559367
231	0xbe69fae2	-0.2284961
232	0xbe7e3d01	-0.24827959
233	0xbca1d2a0	-0.019753754
234	0xbe7ff7ae	-0.24996826
235	0xbdc7dd82	-0.09759046
236	0x3d9530de	0.07284711
237	0xbd0a634d	-0.033786107
238	0xbe3857f2	-0.18002298
239	0x3e4f3702	0.20235828
240	0xbc52d77d	-0.012868759
241	0xbd97f6dc	-0.074201316
242	0xbe738837	-0.2378243
243	0xbe02ecf0	-0.12785697
244	0xbe3aac73	-0.18229847
245	0xbe64219a	-0.22278443
246	0x3e82dc05	0.25558487
247	0x3e01ff13	0.1269496
248	0xbe8c057f	-0.27347943
249	0x3e3d973f	0.18514727
250	0xbe45ca19	-0.19315375
251	0x3e4d72a4	0.20063263
252	0xbd935373	-0.07193651
253	0x3de3d9c4	0.1112552
254	0xbe988949	-0.2979224
255	0x3e9f6cfb	0.31137833

linear1.bias f4 [256]
0	0xbd97fa2a	-0.07420762
1	0xbdfb5831	-0.122726806
2	0xbe0dee63	-0.13860469
3	0x3d8af9c9	0.06785924
4	0x3e4b003a	0.19824305
5	0xbe1073fc	-0.14106745
6	0x3ea75de9	0.32688835
7	0x3e264af0	0.16239524
8	0x3e855db7	0.2604806
9	0xbe1e7938	-0.15475929
10	0xbea2bf7f	-0.31786725
11	0x3e9d6234	0.30738986
12	0xbe83a12b	-0.257089
13	0x3d7fb367	0.06242695
14	0x3e8e52ba	0.2779749
15	0x3e758c1e	0.23979232
16	0xbe126249	-0.14295305
17	0xbe673d8b	-0.2258207
18	0x3e2e6ef8	0.17034519
19	0x3d5080cd	0.050904084
20	0x3e399b28	0.18125594
21	0xbd03e612	-0.032201834
22	0x3d52ffeb	0.051513594
23	0x3d4cabcd	0.04996853
24	0xbc4423f6	-0.011971464
25	0x3d3b19e1	0.045678977
26	0xbe93eebe	-0.28893083
27	0xbe1c360b	-0.15254991
28	0x3e9a1130	0.30091238
29	0xbe98d058	-0.29846454
30	0xbe28af44	-0.16473109
31	0xbdbaf474	-0.09128657
32	0x3d96b068	0.073578656
33	0xbe3ab0fd	-0.18231578
34	0xba8ca526	-0.001073037
35	0x3d10257b	0.035191994
36	0xbb1ead2c	-0.0024212105
37	0xbe1439c8	-0.14475167
38	0x3dfd22e3	0.1236017
39	0x3e5133c2	0.204299
40	0x3e0070fb	0.12543099
41	0xbe05382e	-0.13009712
42	0x3e156a8d	0.14591427
43	0x3e1d583d	0.15365691
44	0x3d7530a0	0.059860826
45	0x3e5111fc	0.20417017
46	0xbe5014ea	-0.20320478
47	0x3d32ef28	0.04368511
48	0x3e1d7258	0.1537565
49	0xbe650f58	-0.22369134
50	0xbe0eef5e	-0.13958499
51	0x3e2e979d	0.17050023
52	0xbdc387f2	-0.09547414
53	0xbdb00c93	-0.08596148
54	0xbe919649	-0.2843497
55	0x3b415bd1	0.002950419
56	0xbe8dca00	-0.27693176
57	0xbe087e2c	-0.13329381
58	0x3e7a03c0	0.24415493
59	0xbd2b34be	-0.041798346
60	0xbe53eb7f	-0.20695303
61	0xbdd2b791	-0.10288919
62	0x3d696027	0.056976464
63	0xbe5f5b10	-0.21812081
64	0x3d4b4716	0.04962834
65	0xbe4c7527	-0.19966565
66	0x3daefa28	0.08543807
67	0xbe512565	-0.20424421
68	0x3df17f5e	0.117918715
69	0xbcb2f38a	-0.021844644
70	0x3e351940	0.17685413
71	0x3e5efb96	0.2177566
72	0xbd2730e2	-0.040818103
73	0x3e833e5c	0.25633514
74	0xbdb86834	-0.0900425
75	0xbdb38810	-0.08766186
76	0x3d8dd8db	0.069261275
77	0xbd85b920	-0.065294504
78	0xbe34b387	-0.17646609
79	0x3e712d7b	0.23552506
80	0x3e9c172c	0.3048643
81	0xbe417329	-0.18891586
82	0xbdc1d75f	-0.09464907
83	0x3dfad09a	0.12246819
84	0x3e26c119	0.16284598
85	0xbe951025	-0.2911388
86	0xbe0a96ef	-0.13534139
87	0x3d703286	0.058641933
88	0xbe5831ec	-0.21112794
89	0x3dfc05fb	0.12305828
90	0xbe8752f6	-0.26430482
91	0x3d48788f	0.0489431
92	0x3e8e1866	0.2775299
93	0x3e1404a6	0.14454898
94	0xbe3aa1be	-0.18225762
95	0xbc75704a	-0.014980385
96	0x3e07e04c	0.13269156
97	0xbd9d9663	-0.076946996
98	0x3df6ff22	0.120603815
99	0xbdd2f80c	-0.103012174
100	0x3e6b75b1	0.22994114
101	0x3e00f010	0.12591577
102	0xbd8894ec	-0.066690296
103	0xbd84a121	-0.064760454
104	0xbdb9cc21	-0.090721376
105	0x3e1e6528	0.15468276
106	0xbe409e2c	-0.18810338
107	0xbda11f7c	-0.07867333
108	0x3d47e780	0.04880476
109	0xbca0b997	-0.019619746
110	0x3e5c8071	0.21533372
111	0xbe3b8705	-0.18313225
112	0xbe3e2771	-0.18569733
113	0x3e63af05	0.22234733
114	0x3d544077	0.05181929
115	0xbe4f3966	-0.2023674
116	0xbdaa1b18	-0.08305949
117	0x3e6b5f7a	0.2298564
118	0x3df2f3aa	0.118628815
119	0x3d83d190	0.06436455
120	0x3d6585d3	0.056035828
121	0xbdc916d9	-0.09818811
122	0xbe7bc334	-0.24586183
123	0x3e4561e0	0.19275618
124	0xbe55d21a	-0.20880929
125	0xbe5c70cf	-0.21527408
126	0xbe27c18b	-0.16382425
127	0xbe85873b	-0.26079735
128	0xbdb9cf0e	-0.09072696
129	0x3df7748c	0.120827764
130	0xbe9e8eee	-0.30968422
131	0x398f86c6	0.000273755
132	0x3da34138	0.07971424
133	0x3d866625	0.06562451
134	0xbddf2529	-0.108957596
135	0x399e968a	0.0003024827
136	0xbe6732fd	-0.22578044
137	0x3e375de6	0.17906913
138	0xbe8eda52	-0.2790094
139	0xbea38c66	-0.31943053
140	0xbcdc83ce	-0.026918318
141	0x3bd7f6e6	0.006590712
142	0x3e628848	0.221223
143	0xbdbc5f82	-0.09197904
144	0xbd039484	-0.032124057
145	0x3da01e6c	0.078183025
146	0xbe74795c	-0.2387442
147	0xbd95ea3f	-0.073200695
148	0xbe765ae3	-0.24058108
149	0xbda6457d	-0.081187226
150	0x3e725367	0.23664628
151	0x3e91af91	0.2845426
152	0xbdd21a92	-0.10258974
153	0xbe287561	-0.16451026
154	0xbe0db829	-0.13839783
155	0x3d8f0ff3	0.06985464
156	0xbe8ac900	-0.27106476
157	0xbdc90aea	-0.09816535
158	0xbe3d211e	-0.18469664
159	0x3be6617b	0.0070306635
160	0xbe87fd9a	-0.2656067
161	0x3e982688	0.29716897
162	0xbda3aedf	-0.079923384
163	0x3d6e4ac7	0.058176782
164	0x3e7a398f	0.2443602
165	0x3dbf4425	0.093391694
166	0xbe8de744	-0.27715504
167	0x3e9b4543	0.3032628
168	0xbd47d303	-0.04878522
169	0xbda1dee4	-0.07903841
170	0xbea03dd6	-0.31297177
171	0xbe39e19a	-0.18152466
172	0xbd1dbc0f	-0.038509425
173	0x3e3a54cf	0.18196414
174	0xbd90ffcf	-0.070800416
175	0xbe58537d	-0.21125598
176	0xbe3b1c19	-0.18272437
177	0xbd9d92e7	-0.07694035
178	0x3e29b086	0.16571245
179	0xbe67382c	-0.22580022
180	0xbe8dce60	-0.27696514
181	0xbe95fe9f	-0.29295823
182	0x3dfa7f1f	0.12231278
183	0xbe834114	-0.25635588
184	0x3d97ad01	0.07406045
185	0xbe0505b2	-0.12990454
186	0xbe623bfb	-0.22093193
187	0x3df59613	0.11991515
188	0x3dcb53d0	0.09928095
189	0x3e46c9d7	0.19412933
190	0xbe00b4a3	-0.12568907
191	0xbe692458	-0.2276777
192	0x3e67e13b	0.22644512
193	0xbe81d4f7	-0.25357792
194	0xbe18da00	-0.1492691
195	0x3e895471	0.26822236
196	0x3dff2803	0.124588035
197	0x3dc593fc	0.096473664
198	0x3dd3e486	0.10346322
199	0xbdae8a3f	-0.08522462
200	0x3e6e78e8	0.2328831
201	0xbe556ad6	-0.20841536
202	0x3e18d2eb	0.14924209
203	0xbe5150b2	-0.20440939
204	0xbe194c65	-0.14970548
205	0x3e55b15d	0.2086844
206	0x3e3f2454	0.18666202
207	0xbdb0930d	-0.08621798
208	0x3e0620c1	0.13098432
209	0x3e9dc712	0.3081594
210	0x3d7482b3	0.059694957
211	0x3e0e9a5e	0.13926074
212	0xbe197527	-0.14986096
213	0xbe559e60	-0.20861197
214	0x3e316916	0.17325243
215	0xbe64a4e5	-0.22328527
216	0xbdfa23a4	-0.12213829
217	0xbe85ea74	-0.26155436
218	0xbc99c61b	-0.018771222
219	0xbd3c999e	-0.04604494
220	0xbe0336be	-0.12813851
221	0x3d7c2201	0.061555866
222	0x3e3cfed8	0.1845659
223	0xbe06ed97	-0.13176571
224	0x3e24e0ff	0.16101454
225	0xbe10041d	-0.14064069
226	0xbd5ebd52	-0.05437977
227	0xbe97dc21	-0.29660133
228	0x3e8112a0	0.25209522
229	0xbe50f456	-0.20405707
230	0x3e0bc0b0	0.13647723
231	0x3d8f0fa8	0.06985408
232	0x3e93bada	0.28853494
233	0xbe5f30be	-0.21795937
234	0xbdbe1edd	-0.092832305
235	0xbe1e3ad2	-0.15452126
236	0x3e8a1014	0.26965392
237	0x3dc9247a	0.098214105
238	0xbe570ccf	-0.2100098
239	0xbe80187f	-0.2501869
240	0x3ddf5efd	0.109067895
241	0xbe84c835	-0.25933996
242	0x3c28df9e	0.010307221
243	0x3dc0b809	0.09410102
244	0xbccd8dfd	-0.02509212
245	0xbc3cbacc	-0.011519145
246	0xbe2b1384	-0.16706663
247	0xbe93a761	-0.28838637
248	0x3e611aea	0.21982923
249	0xbe3cc891	-0.18435885
250	0xbe1a78a5	-0.15085085
251	0x3dd52704	0.10407832
252	0xbdc4d49b	-0.09610864
253	0xbe9985e4	-0.29984963
254	0xbddbbae8	-0.10729009
255	0x3d8870ec	0.06662163

linear2.weight f4 [3, 256]
0	0xbcf227cf	-0.029559998
1	0x3d5af669	0.05345765
2	0x3d1c2a6d	0.038126398
3	0xbc59c047	-0.013290471
4	0xbd03e2ef	-0.032198843
5	0x3c7a1da5	0.015265857
6	0xbd930397	-0.07178419
7	0x3d090c4a	0.033458985
8	0xbca81d77	-0.020521862
9	0xbcb16bd0	-0.021657854
10	0x3cb50d13	0.02210096
11	0x3acb1d83	0.0015496466
12	0x399459c7	0.0002829565
13	0xbd78fad0	-0.06078607
14	0xbd097e9b	-0.033568006
15	0xb79ed060	-1.89321e-05
16	0x3d9cd248	0.076572955
17	0x3d16c20d	0.036806155
18	0xbcbe145c	-0.023203067
19	0xbb8a76ec	-0.0042256024
20	0x396c6f70	0.00022548228
21	0xbd6852f1	-0.056719724
22	0xbd9b99bd	-0.075976826
23	0xbc42de92	-0.011893885
24	0xbcb0c9ba	-0.021580566
25	0xbd6baca8	-0.057537705
26	0x3da00180	0.07812786
27	0xbc289bf8	-0.010291092
28	0xbd3cca96	-0.04609164
29	0xbc375c70	-0.011191472
30	0xbda6f9d2	-0.08153118
31	0xbd46f6ae	-0.048575096
32	0xbcbb330a	-0.022851486
33	0xbd54dca5	-0.051968236
34	0xbd28f7af	-0.041251834
35	0xbcd3edc5	-0.025870213
36	0x3d9868d8	0.07441872
37	0x3b06755a	0.0020516724
38	0xbbffd1f2	-0.00780701
39	0xbd2ab37a	-0.04167507
40	0xbca4a342	-0.020097379
41	0xbd74c5ec	-0.059759066
42	0x3ce22636	0.027606111
43	0xbc9d61fb	-0.01921176
44	0xbd8ba469	-0.06818468
45	0xbd867955	-0.06566111
46	0xbd00e85a	-0.031471588
47	0xbc268e5f	-0.01016578
48	0x3ca1922c	0.01972302
49	0x3d6b0b57	0.05738386
50	0xbc838732	-0.016055677
51	0xbd1af145	-0.03782775
52	0x3d1b6ae8	0.03794375
53	0xbd6374c7	-0.05553129
54	0xbb1c326c	-0.0023833765
55	0xbd3d0939	-0.046151374
56	0x3cce42de	0.02517837
57	0xbd0b72f3	-0.03404517
58	0x3c9f0076	0.0194094
59	0xbc4199b6	-0.011816433
60	0xbcf23c92	-0.029569898
61	0xbb9da59a	-0.004811001
62	0xbd21d61a	-0.039510824
63	0xbd481b42	-0.04885412
64	0xbd3f16fe	-0.046652786
65	0xbb9d6487	-0.0048032436
66	0x3c707241	0.014675678
67	0x3d55eef5	0.05222984
68	0xbcea6518	-0.028612658
69	0x3d12a180	0.03579855
70	0xba8fe4dc	-0.001097824
71	0x3bbac7ec	0.005700102
72	0x3c140c9e	0.009036211
73	0x3b16a457	0.0022986138
74	0x3cbd2197	0.023087306
75	0xbd47d6c6	-0.04878881
76	0xbd51d496	-0.05122813
77	0x3c9b87d0	0.018985659
78	0x3c940127	0.018066956
79	0xbd3b2956	-0.045693718
80	0xbd82c619	-0.063854404
81	0xbd1cb7f6	-0.038261376
82	0xbd656c4a	-0.056011476
83	0xbca4d914	-0.020123042
84	0x3cd843f8	0.026399598
85	0xbc9a7b4b	-0.018857619
86	0x3bbc8634	0.005753303
87	0xbd826952	-0.063677445
88	0x3d9825ce	0.07429086
89	0xbb0ce6ff	-0.002149999
90	0xbce0d601	-0.027445795
91	0x3c8230f4	0.015892483
92	0x3d3bdc85	0.0458646
93	0x3d687c5f	0.056759235
94	0x3c81c498	0.015840814
95	0xbb5d9c40	-0.0033815056
96	0xbc7cc17b	-0.015426989
97	0x3d33de01	0.04391289
98	0x3c59fc2e	0.013304753
99	0xbcedc170	-0.029022902
100	0xbcec3bff	-0.028837202
101	0xbb9ee6bc	-0.004849283
102	0x3c91a10b	0.017776987
103	0x3ca16144	0.0196997
104	0xbd8cc6a3	-0.068738244
105	0xbd1a6bfe	-0.037700646
106	0x3aa474c0	0.0012547001
107	0x3d2adc40	0.041713953
108	0x3c0492e0	0.008091658
109	0x3d532b7d	0.051555146
110	0x3c0f1069	0.00873194
111	0xbd21819c	-0.039430246
112	0xbcdcecf1	-0.026968451
113	0xbd65c07d	-0.056091774
114	0xbd69f5fe	-0.057119362
115	0xbd186777	-0.037208047
116	0xbd6cf27e	-0.057848446
117	0xbd17945a	-0.037006713
118	0xbd607538	-0.05479929
119	0x3c96304e	0.01833358
120	0x3cf5c0f5	0.029999236
121	0xbd54a78d	-0.0519176
122	0xbd2b035f	-0.04175126
123	0xbd24c186	-0.04022362
124	0xbc8770e2	-0.016533319
125	0x3d06a125	0.032868523
126	0x3d21fe7a	0.03954933
127	0x3d11a836	0.03556081
128	0xbd7b11c8	-0.061296254
129	0xbcb9167a	-0.022593725
130	0x3c667f6a	0.014068464
131	0xbc68ddbf	-0.014213025
132	0x3cb6bb8a	0.022306222
133	0x3d1d83e6	0.038455866
134	0xbd59a262	-0.053133376
135	0x3d010631	0.031500045
136	0xbd4b64ea	-0.049656786
137	0xbd7743cc	-0.06036739
138	0x3ce470ba	0.027885783
139	0x3cec2e90	0.028830796
140	0xbd17baee	-0.037043504
141	0xba92e738	-0.0011207825
142	0xbcf8da59	-0.030377554
143	0x3cfa2bf9	0.030538546
144	0xbd2059d6	-0.039148174
145	0x3d303a69	0.043024454
146	0x3d78a2f8	0.060702294
147	0x3c9b0190	0.018921643
148	0x3bf8c543	0.007591875
149	0xbd9359ac	-0.07194838
150	0xbd6f2321	-0.05838311
151	0xbd9105e3	-0.07081201
152	0x3d05add6	0.032636486
153	0xbd974ac8	-0.0738731
154	0xbcaa4a0d	-0.020787263
155	0xbd803a6d	-0.06261144
156	0xbc246e4b	-0.0100360615
157	0x3c867cc5	0.016416917
158	0xbd09124d	-0.03346472
159	0xbd18b4d8	-0.03728184
160	0xbd18038f	-0.03711277
161	0xbcf6121d	-0.030037934
162	0xbd1c3a70	-0.038141668
163	0xbcb418fd	-0.021984572
164	0x3d23b37f	0.039966103
165	0xbd4c6c22	-0.04990781
166	0x3d20d36d	0.03926413
167	0xbd8e016a	-0.069338635
168	0xbb95c385	-0.004570427
169	0x3d2b0376	0.041751347
170	0x3c69bc9e	0.014266161
171	0x3d7ca11d	0.061677087
172	0x3c23daf2	0.010000931
173	0xbd2c9a10	-0.042139113
174	0x3c77829c	0.015106823
175	0x3d0f1c0f	0.034938868
176	0xbd240bfd	-0.040050495
177	0xbd182ad8	-0.037150234
178	0xbda7b7b8	-0.081893384
179	0x3d249309	0.040179286
180	0xbd5894fc	-0.052876458
181	0xbc9dbbf0	-0.019254655
182	0xbd0e44db	-0.034733634
183	0x3d4ad219	0.04951677
184	0xbc07bd6d	-0.008284909
185	0xbd5d3c46	-0.05401256
186	0x3d31a3ac	0.04336898
187	0x3cd5ddac	0.026106678
188	0x3cd00e8d	0.025397563
189	0x3c90884c	0.017643116
190	0x3b71a490	0.0036871769
191	0xbdb80567	-0.089854054
192	0x3d198d14	0.03748806
193	0xbd34db9f	-0.04415476
194	0x3d0389be	0.032113783
195	0xbd6ea003	-0.058258068
196	0x3c4d20e7	0.012520052
197	0xbc34dc0c	-0.011038791
198	0x3ae2e514	0.0017310702
199	0xbd551c37	-0.05202886
200	0x3d151825	0.03639998
201	0xbd1769b0	-0.036966026
202	0x3b4c3c71	0.0031163956
203	0xbd011b3e	-0.03152012
204	0x3d7933ff	0.060840603
205	0xbd07f5ec	-0.033193514
206	0xbd001ae7	-0.031275656
207	0x3cf0ca48	0.02939333
208	0x3ccf3ef7	0.025298579
209	0xbd16398f	-0.036675986
210	0x3c04632c	0.008080285
211	0xbd8e5bb7	-0.06951087
212	0xbcafa93f	-0.021443008
213	0x3c6dffb0	0.014526293
214	0xbc1a0f6d	-0.009403092
215	0xbd6f5232	-0.058427997
216	0xbd8dab3d	-0.06917427
217	0x3c7a9f9f	0.015296846
218	0xbd533d3f	-0.05157208
219	0x3d1c6f3e	0.038192026
220	0xbcfef33a	-0.031121839
221	0xbd750d88	-0.059827358
222	0x3cc5827f	0.024110077
223	0xbcac1928	-0.02100809
224	0x3cd5f6d0	0.026118666
225	0xbd30c80a	-0.043159522
226	0xbcbf611d	-0.023361737
227	0x3d563e7a	0.052305676
228	0x3ce9dd97	0.028548045
229	0x3d37f8d4	0.044915035
230	0xbc12f66e	-0.008969886
231	0x3c96349d	0.018335635
232	0x38b5d5d0	8.670578e-05
233	0xbabb8d9a	-0.0014309168
234	0xbd8095c8	-0.062785685
235	0xbac4781a	-0.0014989406
236	0xbcf3b95e	-0.029751476
237	0xbd53be1f	-0.051694985
238	0x3d1b88f3	0.0379724
239	0xbd010056	-0.03149446
240	0x3c7401e6	0.014893031
241	0xbd07ac4d	-0.033123303
242	0x3d0d2a11	0.034463946
243	0xbcba3264	-0.022729106
244	0xbbc7c5d7	-0.0060965824
245	0xbc813d50	-0.015776306
246	0x3ba211fd	0.004945992
247	0x3cd7e331	0.02635345
248	0xbd9b3f89	-0.07580478
249	0xbd7c9d8a	-0.06167368
250	0xbc77d962	-0.015127512
251	0xbd55f044	-0.05223109
252	0xb94ece2a	-0.00019722493
253	0xbcee9e94	-0.02912835
254	0xbd6ca31f	-0.057772752
255	0x3ce18bf0	0.027532548

linear2.bias f4 [3]
0	0xbd4dfff8	-0.05029294
1	0x3ca992d1	0.02069989
2	0xbd57d558	-0.052693695
